…
 %&gt;%\n  layer_conv_2d(filters = 128, kernel_size = c(3, 3), activation = \"relu\") %&gt;%\n  layer_max_pooling_2d(pool_size = c(2, 2)) %&gt;%\n  layer_flatten() %&gt;%\n  layer_dense(units = 512, activation = \"relu\") %&gt;%\n  layer_dense(units = 1, activation = \"sigmoid\")\n\nmodel\n\n\nModel: \"sequential\"\n________________________________________________________________________________\n Layer (type)                       Output Shape                    Param #     \n================================================================================\n conv2d_3 (Conv2D)                  (None, 148, 148, 32)            896         \n max_pooling2d_3 (MaxPooling2D)     (None, 74, 74, 32)              0           \n conv2d_2 (Conv2D)                  (None, 72, 72, 64)              18496       \n max_pooling2d_2 (MaxPooling2D)     (None, 36, 36, 64)              0           \n conv2d_1 (Conv2D)                  (None, 34, 34, 128)             73856       \n max_pooling2d_1 (MaxPooling2D)     (None, 17, 17, 128)             0           \n conv2d (Conv2D)                    (None, 15, 15, 128)             147584      \n max_pooling2d (MaxPooling2D)       (None, 7, 7, 128)               0           \n flatten (Flatten)                  (None, 6272)                    0           \n dense_1 (Dense)                    (None, 512)                     3211776     \n dense (Dense)                      (None, 1)                       513         \n================================================================================\nTotal params: 3,453,121\nTrainable params: 3,453,121\nNon-trainable params: 0\n________________________________________________________________________________\n\n\nW kroku kompilacji, użyjemy optymalizatora RMSprop. Ponieważ sieć kończy się pojedynczą jednostką sigmoidalną, użyjemy binarnej entropii krzyżowej jako funkcji straty.\n\n\nKod\nmodel %&gt;% compile(\n  loss = \"binary_crossentropy\",\n  optimizer = optimizer_rmsprop(learning_rate = 1e-4),\n  metrics = c(\"acc\")\n)"
…
                         2)                                                    \n add_2 (Add)              (None, 16, 16, 3  0        ['max_pooling2d_1[0][0]',  \n                          2)                          'conv2d_15[0][0]']        \n conv2d_17 (Conv2D)       (None, 16, 16, 6  18496    ['add_2[0][0]']            \n                          4)                                                    \n conv2d_16 (Conv2D)       (None, 16, 16, 6  36928    ['conv2d_17[0][0]']        \n                          4)                                                    \n max_pooling2d_2 (MaxPool  (None, 8, 8, 64)  0       ['conv2d_16[0][0]']        \n ing2D)                                                                         \n conv2d_18 (Conv2D)       (None, 8, 8, 64)  2112     ['add_2[0][0]']            \n add_3 (Add)              (None, 8, 8, 64)  0        ['max_pooling2d_2[0][0]',  \n                                                      'conv2d_18[0][0]']        \n conv2d_20 (Conv2D)       (None, 8, 8, 128  73856    ['add_3[0][0]']            \n                          )                                                     \n conv2d_19 (Conv2D)       (None, 8, 8, 128  147584   ['conv2d_20[0][0]']        \n                          )                                                     \n conv2d_21 (Conv2D)       (None, 8, 8, 128  8320     ['add_3[0][0]']            \n                          )                                                     \n add_4 (Add)              (None, 8, 8, 128  0        ['conv2d_19[0][0]',        \n                          )                           'conv2d_21[0][0]']        \n global_average_pooling2d  (None, 128)      0        ['add_4[0][0]']            \n  (GlobalAveragePooling2D                                                       \n )                                                                              \n dense (Dense)            (None, 1)         129      ['global_average_pooling2d[\n                                                     0][0]']                    \n================================================================================\nTotal params: 297,697\nTrainable params: 297,697\nNon-trainable params: 0\n________________________________________________________________________________\n\n\nDzięki połączeniom rezydualnym można bud
…
 map cech jest niezależne wykreślenie zawartości każdego kanału jako obrazu 2D. Zacznijmy od załadowania modelu:\n\n\nKod\nmodel &lt;- load_model_tf(\"models/convnet_from_scratch_with_augmentation.keras\")\nmodel\n\n\nModel: \"model\"\n________________________________________________________________________________\n Layer (type)                       Output Shape                    Param #     \n================================================================================\n input_1 (InputLayer)               [(None, 180, 180, 3)]           0           \n sequential (Sequential)            (None, 180, 180, 3)             0           \n rescaling (Rescaling)              (None, 180, 180, 3)             0           \n conv2d_4 (Conv2D)                  (None, 178, 178, 32)            896         \n max_pooling2d_3 (MaxPooling2D)     (None, 89, 89, 32)              0           \n conv2d_3 (Conv2D)                  (None, 87, 87, 64)              18496       \n max_pooling2d_2 (MaxPooling2D)     (None, 43, 43, 64)              0           \n conv2d_2 (Conv2D)                  (None, 41, 41, 128)             73856       \n max_pooling2d_1 (MaxPooling2D)     (None, 20, 20, 128)             0           \n conv2d_1 (Conv2D)                  (None, 18, 18, 256)             295168      \n max_pooling2d (MaxPooling2D)       (None, 9, 9, 256)               0           \n conv2d (Conv2D)                    (None, 7, 7, 256)               590080      \n flatten (Flatten)                  (None, 12544)                   0           \n dropout (Dropout)                  (None, 12544)                   0           \n dense (Dense)                      (None, 1)                       12545       \n================================================================================\nTotal params: 991,041\nTrainable params: 991,041\nNon-trainable params: 0\n________________________________________________________________________________\n\n\nNastępnie pobieramy obraz wejściowy - zdjęcie kota, które nie jest częścią obrazów, na których sieć była trenowana.\n\n\nKod\nimg_path &lt;- get_fil
…
